chapter23/AlphaZero/current_policy.model (torch, 594687 bytes, 15 tensors)

conv1.weight f4 [32, 4, 3, 3]
00000000: 355a b43a d878 3b3c 3a6c bdb5 5b35 21b4
00000010: 5887 43ba 5b57 fbb8 3fc2 bab9 d89f 50bb
00000020: ebaf 4dba 7ea1 21b9 66a9 852e 42f5 69ba
00000030: 6899 953b bf7e a1b7 10a8 073b 09b8 2fbb
00000040: 5e0b 552f 877e 24b6 c06c afa9 ec0b 75ab
00000050: 40aa e92c 92af 60ad 7065 6fa9 7993 042d
00000060: 0272 2aac bb86 a72b e9ef f1ab eab4 09bd
00000070: 8bd9 8bbc a994 e0ba 7694 22bd 2019 05bd
00000080: 9c65 2e3c 61a1 6b3a bfd9 b6bc 6bd3 98bc
00000090: 98a5 ebbd 0d78 ccbd 3369 f3bd ad8a 9bbd
000000a0: 8b1e 29bd c65b 68bd ce96 82bd 3159 ae3c
000000b0: 3d1e 59bd 636d 2fbc a3cb 323d e9bb 66bd
000000c0: 28b7 99bd 6010 9cbd 274c 6cbd 095d aebd
000000d0: c71c c1bd e637 b0bd b9a7 8030 5f2c e732
000000e0: 13b3 ba31 c6f0 812f f78a 3b2f bb85 9132
000000f0: 8551 04b0 e9b4 1fb0 c052 3db0 ade8 d3bb
00000100: b544 0b3d 1263 25bd 7001 61bc 6090 39bc
00000110: becc f73b 11fa c4bc 64c9 43bd 7056 533b
00000120: cc3d 4bbb 30f2 efbb 4d58 53b9 d979 003d
00000130: bcc0 da3c 6fea b1ba 49fd 923c a49d 553d
00000140: d5d2 7fbb d709 243a 8f5c d23b b2d3 493d
00000150: 4b36 523d 298c 6b3c 672a 763d a0cf 013b
00000160: 541a 47b9 f247 713b a805 94ae 3a7a e72c
00000170: a05a fb2d 48e7 dead 0b13 922d 12a0 e5ae
00000180: c28b 272e 6ef5 a62c 1c37 c0ad 9907 82bd
00000190: 2278 e7bd 3fc3 1abd 6bd4 023c 7ce5 50bd
000001a0: cc23 92bd c5cb d8bc c551 1abd b94b d5bb
000001b0: 8dea f7b7 6bc3 da2a 6f87 fc2d 264e a1b7
000001c0: 505b 142c 9d1a 12b9 9cef c4ac 4859 be29
000001d0: 7ed5 8932 3420 2c2e fda9 5a2d 8a71 afb0
000001e0: 59a0 cbac 147e 7c2b 61ca 50ad 3c66 ed2d
000001f0: 24ba a12c 1e31 5fad 06e6 202b 47c8 95ab
00000200: dbba 2a2c f058 6d29 b479 00ac f768 2eac
00000210: 6051 e1ab 536c d1ab 50a0 48aa e819 20b0
00000220: 6817 e230 debe 8a30 80c3 2732 6bfc a432
00000230: 5dd4 8e31 4a8f ca30 6159 7632 a1ae d430
00000240: 26a7 c6bc 9ba2 03bc 9bfa 59bc f379 393d
00000250: 235a 403c 4b57 d0bc ccad eabb d28b 9f39
00000260: 695d 3abc 1f0c 8abc f4e9 54bc 44f4 8abc
00000270: fdac bdbb d799 5d3c 63a9 bcbc ad74 a2bb
00000280: 5817 4aba 1304 82bc 235c ddac a029 60ac
00000290: 4373 3a2d 0c74 ca2f 0b70 6b31 4a9f 90ae
000002a0: d5c6 3aac 2f31 cdad 9cd7 622d f6c9 b9bd
000002b0: 59c4 0dbd a041 b4bd c786 eebb edde 403d
000002c0: 8d8c 4fbc fa93 b83c a850 fcbd 8535 0bbe
000002d0: 73d2 583d 925c c1bc 348d 203d b5e7 24bd
000002e0: ff93 e23b 5f28 6dbc 923c e7bc fead 23bd
000002f0: 341f 87bc 0947 90bc d128 373d a026 e1bc
00000300: d45a 533d 4288 07bd 48a3 3a3c 17c5 e3bc
00000310: cc0b 5aba 1c8d 293d 39e6 5b2e 7df9 07b4
00000320: 8996 82ab d1d8 9832 b8a8 1eb0 eaac 8130
00000330: 16b7 12ae 3249 94b0 4205 c2b5 dae5 9ebd
00000340: 7764 0cbe 1180 e1bd 6cc1 503d e130 843c
00000350: cdf9 303c ae52 18be 2c39 eb3c c695 e9bd
00000360: c51d a8ba b014 68bb 5157 24ba e535 1ab7
00000370: 57ef 7dbb 8105 21bb 6ffc 90ba 89fd 42bb
00000380: 4242 8bba 6118 0eba f899 1aba f933 b6ba
00000390: 85c1 fdba f063 3aba 363a c3ba 13ae 32b8
000003a0: c8e9 5ab1 475e 00b5 40de fc2c 081d a92c
000003b0: cfef 202d 40b8 d2ac 6b71 9fac 697d f5ac
000003c0: 6fcf 9f2b 054d 6bab e923 ef2b 2511 d1b7
000003d0: 1971 27b7 4839 23b9 ce20 1db8 e485 18ba
000003e0: b218 3239 f2d5 b132 2436 8ab8 5d42 a5b8
000003f0: e3d0 bdbc 90a2 98bc 6722 263d 5b93 44bb
0.0013759794 0.011442386 -1.4113095e-06 -1.5013704e-07 -0.00074588275 -0.00011984884 -0.0003562141 -0.0031833556
-0.0007846343 -0.00015414317 6.078231e-11 -0.0008924791 0.0045654066 -1.9251716e-05 0.0020699538 -0.0026812574
1.9376276e-10 -2.4511553e-06 -7.790426e-14 -8.705803e-13 6.64116e-12 -1.277191e-11 -5.3156644e-14 7.536077e-12
-2.422174e-12 1.1903459e-12 -1.7190668e-12 -0.0336198 -0.017071506 -0.0017134148 -0.039692365 -0.032494664
0.010644343 0.0008988586 -0.022320626 -0.0186555 -0.11506194 -0.09983835 -0.118852995 -0.0759481
-0.041288894 -0.056728147 -0.0637642 0.021282764 -0.053007353 -0.010707232 0.043651234 -0.05633155
-0.075056374 -0.07620311 -0.057689812 -0.08513839 -0.09429317 -0.08604412 9.360895e-10 2.6912117e-08
5.433671e-09 2.3636043e-10 1.7056921e-10 1.6941035e-08 -4.8137166e-10 -5.810095e-10 -6.8875394e-10 -0.006466946
0.03400107 -0.040377684 -0.013733253 -0.011325926 0.007562249 -0.024045022 -0.047799483 0.0032247566
-0.0031012176 -0.007322572 -0.00020155423 0.031366203 0.026703231 -0.0013573895 0.017943041 0.05215229
-0.0039035578 0.000625757 0.0064197253 0.049274154 0.05132131 0.0143766785 0.06009903 0.0019807592
-0.00018987927 0.0036816564 -6.7312655e-11 6.5789848e-12 2.8575642e-11 -2.5341187e-11 1.6606735e-11 -1.04421485e-10
3.8095534e-11 4.745252e-12 -2.1852346e-11 -0.063491054 -0.113022104 -0.037783857 0.007985215 -0.051000103
-0.07135734 -0.026464352 -0.037675638 -0.006509271 -2.9553916e-05 3.8860178e-13 2.8709228e-11 -1.9229086e-05
2.1082754e-12 -0.00013933559 -5.597257e-12 8.453183e-14 1.6045984e-08 3.9136874e-11 1.242961e-11 -1.2765196e-09
-5.787409e-12 8.9703353e-13 -1.1868368e-11 2.6989182e-11 4.596561e-12 -1.2686989e-11 5.716264e-13 -1.0642675e-12
2.4262179e-12 5.2701712e-14 -1.8257453e-12 -2.4785154e-12 -1.6009798e-12 -1.4880409e-12 -1.7819188e-13 -5.8244476e-10
1.6450317e-09 1.0095069e-09 9.765131e-09 1.92069e-08 4.156887e-09 1.473816e-09 1.4339407e-08 1.5474663e-09
-0.024249624 -0.008034374 -0.013304378 0.045282315 0.01174024 -0.02543225 -0.0071618315 0.00030431018
-0.01137481 -0.016851483 -0.012995232 -0.016962178 -0.005788444 0.013525448 -0.023029989 -0.0049577565
-0.0007709167 -0.015871083 -6.291427e-12 -3.185542e-12 1.0598469e-11 3.6826042e-10 3.426069e-09 -6.576657e-11
-2.6542564e-12 -2.3327644e-11 1.28944876e-11 -0.09071724 -0.03461108 -0.088015795 -0.0072792503 0.0470876
-0.012667787 0.022531498 -0.123200715 -0.13594635 0.052935075 -0.023603711 0.03919716 -0.040260036
0.006914615 -0.014474957 -0.028227124 -0.039960854 -0.016494371 -0.017611997 0.04471666 -0.027484238
0.051600292 -0.03308893 0.011391468 -0.02780394 -0.0008317798 0.041394338 4.9999314e-11 -1.2663618e-07
-9.278837e-13 1.7793726e-08 -5.771983e-10 9.43513e-10 -3.335917e-11 -1.0789221e-09 -1.4455657e-06 -0.077586845
-0.137102 -0.11010755 0.05096571 0.016136589 0.010801745 -0.1487529 0.028713785 -0.1140552
-0.0012826255 -0.0035412721 -0.00062691147 -9.191664e-06 -0.0038747394 -0.002456993 -0.0011061559 -0.002975317
-0.0010624605 -0.0005420503 -0.0005897577 -0.0013900987 -0.0019360041 -0.0007110229 -0.0014894668 -4.2600626e-05
-3.1856064e-09 -4.782091e-07 7.1869455e-12 4.806492e-12 9.148195e-12 -5.989015e-12 -4.5316437e-12 -6.977242e-12
1.1355204e-12 -8.359566e-13 1.6991938e-12 -2.4922725e-05 -9.980308e-06 -0.0001556623 -3.746227e-05 -0.0005818291
0.00016984603 2.0702803e-08 -6.590437e-05 -7.880174e-05 -0.023170894 -0.018632203 0.040560152 -0.0029995057

conv1.bias f4 [32]
00000000: debd c3bd f4fc 93be e092 883d 9e03 9fbc
00000010: 7729 23be db73 59be 3d18 33bd 6f9c 22be
00000020: 7f8d afbc 0619 49bc 8c7e 2dbd 0cbc e2bc
00000030: 4e69 37be f5c4 36be ee69 32bd 504e 9b3e
00000040: c5a6 143e 5b8a 0abe 6e55 9f3d fa53 e3be
00000050: fd38 00be 7761 4f3d 9065 34be 8edc dc3d
00000060: d96f f1bd 44d5 253e c387 06be a5e6 f8bd
00000070: 82e5 3abe f36b d2bd f263 02be 3e46 e7bd
-0.09557699 -0.28903925 0.06668639 -0.019410904 -0.15933786 -0.21235602 -0.043724287 -0.15879987
-0.021429775 -0.012274032 -0.042357013 -0.027677558 -0.17911264 -0.1784857 -0.043558054 0.30333185
0.14516743 -0.13529341 0.07779966 -0.44400007 -0.1252174 0.05063006 -0.17616868 0.10784255
-0.11788911 0.16194636 -0.13137726 -0.12153367 -0.18251613 -0.10274496 -0.12733439 -0.112926945

conv2.weight f4 [64, 32, 3, 3]
00000000: 81bd 53ac 0deb f5ab 5be8 faaa aafb c12b
00000010: 3bf4 2d2c baea d52b 6a5d 22ac 7034 e82b
00000020: 07bd 5d2a 57af 94ad 05a6 b62c dc5e bcac
00000030: a44d 6e2d 7608 082d 2d5b 8dad 22e3 522d
00000040: e067 be2c db6a 202d e1d9 8bae 2b92 b5ae
00000050: d027 88ae f76d 1dae 8b25 9c2f 45cd beaf
00000060: ccb8 e9ac 59ed 642d ef78 972c 5f95 172c
00000070: 317a 0a2c 1be8 68ab 5dba 67ab f7bc c12b
00000080: 7b44 13ac 7ca8 742b 6074 5c2a a20f 472b
00000090: 9ddf 1aad 3076 49ae 479d e72d f4c6 152c
000000a0: ff5a c92e 3a86 04ae 8bca 59ad 5e3c e22d
000000b0: b539 3f2c 3e03 802e 9f80 252f edc8 15ae
000000c0: aeef bd2e 1e21 422f 7d50 5b2d f8c9 4cae
000000d0: 6daa 15ae d4dc 6d2b df8e 4bad 246c 22ad
000000e0: e6c9 b92b df9b 872c dcee fbac 40b9 0c2d
000000f0: aa8d 19ad ca7b 012d 0720 f2ac cc05 bc2a
00000100: 5871 d82a 7a8f a72a 190c a52b fc88 9ba8
00000110: 23fb 93ab 68de 51ab 9cee 72aa 1d51 cb2b
00000120: cc33 d92c c327 b1ae f20d 002e dbec 8131
00000130: 2da2 86b0 82fa dd2e 4658 b3ae 1fb6 fcad
00000140: 60d8 98ad 7ac0 24ad ffeb 522d a9c2 812d
00000150: f4b8 ce2d 185f 64ad bb28 b0ad fae8 b9ac
00000160: 307d 33ad 4395 af2d a94b ca2d de7e afac
00000170: 9c78 b12d 9655 4eb0 f684 6531 264b 7f2f
00000180: 0425 7bae 9e4c 202e 9c72 d5ad be63 3f2b
00000190: eae4 64aa 50cb 832b a1f1 03ab fece 6dab
000001a0: 030d a4ab e76e a22b de95 1b2b 249b b72a
000001b0: c4ef 08ad 512c 22ad c616 b9ac 1cce 52ac
000001c0: 39d7 222d a92f 182d c401 51ad b3be e0ac
000001d0: b553 aa2c fb39 42ad 7103 e3ae 19cc d22d
000001e0: e694 cbaf 3bd7 7e30 f192 18ad 7a8b f5b0
000001f0: 0378 1baf 6c7e b72e 4327 2e2c 3a77 bcae
00000200: 3e55 20ae 1688 b52c 5c06 da2e 604d 052d
00000210: a1bc 882c 5ff8 a72e 913c b52e 3886 b1ac
00000220: c7e1 df2b 490a 4d2c e487 d6ac deb2 d92c
00000230: 129c 8c2a f646 99aa d5a7 982c bceb c52b
00000240: caff 92ac e787 2d2c af4f 362b 3f91 37ad
00000250: 3914 23ad c17e daac caf2 d2ac eea9 57ad
00000260: a194 64ac dfad 31ad a8bc c3ad e1fa 252d
00000270: c4c4 61ad 9f10 2e2e f896 a4ac 8e75 b9ac
00000280: a963 a72d c620 aead 7dcc a6ae d0a4 a5ad
00000290: da7e c0ab 00dc e22d 6016 9aad c205 07ad
000002a0: 1893 1c2e 847a 98ad a4f5 84ad a3d9 642c
000002b0: f888 3cac 3471 80aa 4944 882b ccda 66ac
000002c0: 31d6 56ab 5e52 1e2c e502 272c 10e9 1cac
000002d0: 579b 78ad 35dd 5fad 9830 ef29 5a46 6bab
000002e0: 1e60 a8ac 1fc1 69ad 58ae 382d f371 43ad
000002f0: 0e23 8eac 2cfc 882f 1ff2 152f 2528 caac
00000300: 0255 1f30 5a9e 8a30 ff80 f1af da91 b2b0
00000310: 2ab7 aa30 70a0 d4ad 84ab 7c2e 15c1 ee2e
00000320: fd39 6aad d3bc 852e 5b8f 59ad f320 fcad
00000330: a4fc 42ad d101 feaf 68cc c32c 5051 922e
00000340: 0415 24b0 02fa 97af c697 9eaf b56b 242f
00000350: e759 47ae 12e6 56ae 401f ba2f 48dc 81ae
00000360: f4da 402a 78ef a92c 23e3 9aac 0b55 9f2c
00000370: 66bd 4c2c 083a 142c ba55 99ac 52c8 ea2b
00000380: aa69 9a2b 4dd3 c230 007a 34b2 88d1 0a32
00000390: 5f25 c631 e2e4 ceb2 7e16 b631 64b9 bbaf
000003a0: 559b 2131 a5ab 9c2f 10b7 fab3 acff a6b6
000003b0: 912a a2b5 20ac c2b5 de48 26b7 8a1c 6ab3
000003c0: 6129 36b5 82db b4b5 2c8f d5b4 2996 f9af
000003d0: 680d 3731 d1e0 232f 6856 deaf bed1 9faf
000003e0: 4230 f931 5c66 04b0 77ab 9430 8d43 92af
000003f0: c453 e2ab 032a a8ab 82d4 7e2b f01f 01ad
-3.00901e-12 -1.7473537e-12 -4.457015e-13 1.3783326e-12 2.4720354e-12 1.519971e-12 -2.307344e-12 1.6499146e-12
1.9694325e-13 -1.6903519e-11 5.191183e-12 -5.353813e-12 1.3545973e-11 7.732584e-12 -1.6070334e-11 1.1987552e-11
5.4116572e-12 9.118674e-12 -6.359691e-11 -8.256892e-11 -6.191636e-11 -3.5795335e-11 2.840291e-10 -3.4706651e-10
-6.642775e-12 1.3013001e-11 4.3051045e-12 2.1541308e-12 1.967881e-12 -8.274507e-13 -8.2326317e-13 1.3765923e-12
-2.092797e-12 8.6920033e-13 1.9580301e-13 7.0720697e-13 -8.803539e-12 -4.580708e-11 2.6331505e-11 2.1284615e-12
9.156586e-11 -3.0132542e-11 -1.23799955e-11 2.5720034e-11 2.7174766e-12 5.821342e-11 1.5052358e-10 -3.4057136e-11
8.6373006e-11 1.7655963e-10 1.2466581e-11 -4.6563614e-11 -3.4030046e-11 8.4505775e-13 -1.1570938e-11 -9.232646e-12
1.3201079e-12 3.854236e-12 -7.160368e-12 7.999212e-12 -8.728499e-12 7.360288e-12 -6.8816094e-12 3.339953e-13
3.8447956e-13 2.9764716e-13 1.1727313e-12 -1.7267864e-14 -1.0514683e-12 -7.4560367e-13 -2.1576702e-13 1.4446531e-12
6.1732616e-12 -8.056091e-11 2.9116216e-11 3.7813215e-09 -9.795876e-10 1.00944156e-10 -8.155658e-11 -2.8729961e-11
-1.737649e-11 -9.365059e-12 1.198952e-11 1.4752049e-11 2.3501624e-11 -1.29814146e-11 -2.0026971e-11 -5.283882e-12
-1.0202769e-11 1.9961482e-11 2.2998341e-11 -4.9878842e-12 2.0176132e-11 -7.506399e-10 3.3399465e-09 2.3218813e-10
-5.710367e-11 3.6447838e-11 -2.4266193e-11 6.799525e-13 -2.0329888e-13 9.36454e-13 -4.6875877e-13 -8.4486574e-13
-1.1656512e-12 1.1541574e-12 5.5275045e-13 3.261498e-13 -7.783944e-12 -9.218474e-12 -5.2605446e-12 -2.9957209e-12
9.256423e-12 8.650782e-12 -1.1880667e-11 -6.3876348e-12 4.840984e-12 -1.10404975e-11 -1.0323376e-10 2.3964873e-11
-3.7031284e-10 9.271052e-10 -8.672827e-12 -1.7865738e-09 -1.4139805e-10 8.3443336e-11 2.4748682e-12 -8.570429e-11
-3.64555e-11 5.159438e-12 9.914622e-11 7.577355e-12 3.8862945e-12 7.6384e-11 8.241686e-11 -5.045544e-12
1.5907769e-12 2.9137962e-12 -6.0973327e-12 6.187369e-12 2.497729e-13 -2.72275e-13 4.338733e-12 1.4063121e-12
-4.177968e-12 2.466022e-12 6.476997e-13 -1.0434597e-11 -9.269968e-12 -6.210005e-12 -5.995514e-12 -1.2259067e-11
-3.2483254e-12 -1.0099892e-11 -2.2252714e-11 9.43487e-12 -1.283346e-11 3.9577782e-11 -4.6779212e-12 -5.2710674e-12
1.902996e-11 -1.9796064e-11 -7.5851304e-11 -1.883152e-11 -1.3677629e-12 2.5790925e-11 -1.751771e-11 -7.67514e-12
3.560094e-11 -1.7334807e-11 -1.5115749e-11 3.2521561e-12 -2.679244e-12 -2.2815918e-13 9.682334e-13 -3.2806423e-12
-7.6325323e-13 2.2498873e-12 2.3733734e-12 -2.229831e-12 -1.413166e-11 -1.27252e-11 1.0622162e-13 -8.3586404e-13
-4.7855183e-12 -1.3287398e-11 1.0497901e-11 -1.11097685e-11 -4.0397746e-12 2.4917435e-10 1.363749e-10 -5.7456422e-12
5.7964666e-10 1.0085828e-09 -4.3929302e-10 -1.2992658e-09 1.2421186e-09 -2.4172858e-11 5.7450503e-11 1.0857285e-10
-1.3314236e-11 6.081682e-11 -1.2366853e-11 -2.8663715e-11 -1.1083721e-11 -4.6203621e-10 5.564927e-12 6.653755e-11
-5.969272e-10 -2.764438e-10 -2.8847874e-10 1.4953978e-10 -4.532721e-11 -4.886231e-11 3.3855407e-10 -5.9053706e-11
1.712899e-13 4.8298553e-12 -4.4021605e-12 4.5284935e-12 2.909528e-12 2.1064279e-12 -4.358039e-12 1.66823e-12
1.0971686e-12 1.4175413e-09 -1.05051186e-08 8.080299e-09 5.766807e-09 -2.408564e-08 5.299454e-09 -3.414683e-10
2.351688e-09 2.8498195e-10 -1.1674831e-07 -4.9769496e-06 -1.2082329e-06 -1.4504221e-06 -9.911337e-06 -5.4508327e-08
-6.78605e-07 -1.347493e-06 -3.9778513e-07 -4.539953e-10 2.6637625e-09 1.4904634e-10 -4.044296e-10 -2.9070962e-10
7.25234e-09 -4.816678e-10 1.081715e-09 -2.6605243e-10 -1.6081515e-12 -1.1948779e-12 9.053384e-13 -7.339893e-12

conv2.bias f4 [64]
00000000: c554 45bc 19fe 15bc 9a21 042e 555c d1bc
00000010: 4dd9 e2bc 8df0 84b8 c655 4fbd a49f 382c
00000020: fbb6 273e 12ac bebd de20 17bd 1b2a d6bd
00000030: 1d24 a0ba 7edd 8dbc a0dc d3bd ab0b f23d
00000040: cf20 b0bd 0904 b0bd c0e2 33bd de2c d4ad
00000050: 786a 88bc 07b2 89ae 20af 1ebc 2763 e33a
00000060: 9a73 24bd c512 2bbd 5eaa 99bc 56c0 113e
00000070: eb3f 09bd bd4c 56bd f30f bebc 62c7 0ab2
00000080: e951 15bd 7ad1 0ebc 01ae 87bd f0b5 22bd
00000090: 4d4c 94bc 0823 f6ba 5ceb 952e 945c 2bbc
000000a0: 0e08 17bd fb93 bfbc 625c 9eb6 cf7b aabd
000000b0: 679d de31 0079 72bd dabe 0bad cdb1 0dae
000000c0: 3a2e 06b8 bbfb ecbd 939c d0bd c1c3 a2bd
000000d0: 1391 1bb9 bb58 1cbd f604 71ae 7a52 1dbd
000000e0: 7044 f832 9067 15be ad16 6abb 2953 a8bb
000000f0: 9578 46bd 21d2 a6bd 8e2e 172d 3e94 a1bc
-0.012044136 -0.00915482 3.004317e-11 -0.025556723 -0.027691508 -6.3390566e-05 -0.05061891 2.623659e-12
0.16378395 -0.093101636 -0.03689658 -0.1045725 -0.0012217794 -0.01731753 -0.10344815 0.11818632
-0.08600008 -0.0859452 -0.043917418 -2.4121535e-11 -0.01665233 -6.261663e-11 -0.009685308 0.0017348275
-0.04014931 -0.041765947 -0.018757995 0.14233527 -0.033508223 -0.052319277 -0.023200965 -8.077992e-09
-0.03645507 -0.008716935 -0.066249855 -0.03972429 -0.01810279 -0.0018778751 6.817544e-11 -0.010459084
-0.036872916 -0.023385992 -4.7195217e-06 -0.08324396 6.478945e-09 -0.059197426 -7.943613e-12 -3.2217607e-11
-3.199114e-05 -0.11571451 -0.10186114 -0.07947493 -0.00014835996 -0.038170557 -5.4801462e-11 -0.038408734
2.8902122e-08 -0.14590287 -0.0035719082 -0.0051368666 -0.04845484 -0.08145548 8.5936935e-12 -0.019724008

conv3.weight f4 [128, 64, 3, 3]
00000000: 6ecc 962b 0869 f82a c611 102b e669 942b
00000010: 8049 992b 7067 a42b 080d 57ab fd42 912b
00000020: 00da a72b 6d40 39ab 1bbd a62a 6cc0 6e2b
00000030: 6321 4f2b 50b7 a92a dc80 ccab ac13 86a9
00000040: 8663 f8aa 8716 0e2b ba97 d22a aa9f 24aa
00000050: ee87 052b 3859 1b28 72f6 52ab d0d4 60a9
00000060: 8d72 0cab ee3d 5aa9 202d 2528 b26d 43ab
00000070: e483 fcaa 7ed6 cd2b 1bab 942b 9997 90ab
00000080: 6069 022b 9cde d2ab fd0a 22ab 907a 05ab
00000090: a54f 242c 3c52 0eac 9c8c e8ab d8bf 112c
000000a0: bc25 b12b b110 4eac 87ca 2a2c 57e4 43ac
000000b0: f851 78ab e3ed 7aab 5b0d 042a a76f ee28
000000c0: 7900 d629 c443 e5aa ed0c d8aa 864d e92a
000000d0: 4465 a72a 5258 0f2b 3146 002c bc41 b3ab
000000e0: e511 5aab 0932 022c c275 9dab b819 0fac
000000f0: 6de9 832b 8875 dfab 0cda fb2b f4cf 12ab
00000100: 401a 9829 62eb c9aa 55f4 39a9 2222 ada9
00000110: 59a8 1daa 2860 202b 90db 042a e6ea 1caa
00000120: de2c 9929 c9a5 e62a 5dbd 3baa e826 07aa
00000130: 7460 a4aa 049b 37a9 3000 95aa 23f7 76aa
00000140: 5c3f ff2a 8886 d82a 440e 93aa 72d4 e2aa
00000150: 70b0 c028 b53a 9caa 0414 69aa 8611 18ab
00000160: 3cd5 5aaa b0c7 772b b841 b0ab 1e37 aeab
00000170: 7bcc a3aa bd45 6c2b 7dc3 3f2b affc c1ab
00000180: 2053 2e2b dd79 bd2b f573 fb2b 3480 24aa
00000190: bc9b 722a 48d9 5d29 186e acaa c6b8 c02a
000001a0: 1080 44a9 e63d c229 34bc c4aa 7909 b8aa
000001b0: 4a71 942a cf66 33aa d99e 0fab d5f7 19ab
000001c0: 36ea a0a9 1861 c32a 5845 c5a8 d036 27aa
000001d0: 5c0a 6baa e56f 6aac 8acb 842b 44ee 522c
000001e0: cd7f 312c f269 80ac ca9d 1bab 0def f6ab
000001f0: 4e73 ebab 0735 982a 6bfb b42a f661 4c2a
00000200: c6ff 7faa 636a 73aa 4cc8 0c2a 2e1d 312b
00000210: 38d9 372a 001f a6a7 4a4e 9ba9 4ebc e2a9
00000220: 7189 2129 e26e c52a 6c23 83aa e666 842a
00000230: b4b4 21a9 b3fa db2a 540b 33a9 35c8 c1aa
00000240: db70 d72a c67f e92a 24bb b229 9a43 0a2b
00000250: dd80 68aa 018a ecaa 3af0 e92a f07c 9eaa
00000260: 90b3 462b a085 322b ce18 d3aa b13a 502b
00000270: 0133 c72b f8ea e4aa 64a0 5e2b 86d3 b7ab
00000280: 4c42 c3ab cef3 9fab 4073 1fac 25dd 092c
00000290: 93d0 bd2b 73b2 942a dcbc f2ab 6221 30ab
000002a0: b22f 9f2a 3592 332c 1c0b f229 9221 beaa
000002b0: f604 85aa 4990 afa9 1440 2daa 6634 83aa
000002c0: a63c c1aa 717e a22a f87d a4a9 ef11 dda9
000002d0: 0704 9cab e182 49ab 5e61 ceaa fea3 abaa
000002e0: e0c7 0929 7790 88ab 0d34 ce2b 4694 a42a
000002f0: 8bdc ec2b 1762 4d2b 4ae8 13ab d8b6 e5a9
00000300: 5e65 2e2b 5c10 cdaa ffc6 87aa 13f5 022b
00000310: 8907 0a2a bccb 92aa 6e1c 5fac 1c6f 952b
00000320: 363d 072c b500 552c 5474 d1ab d26d 2aac
00000330: c747 89ac 147e 05ac 90f9 cd2b 73d4 41ab
00000340: 75fe 9d2b 4def 10ab d10f a92b 653a acab
00000350: a7ec 1bab 684b 46aa 4390 f12a 17b8 14ab
00000360: 14bb 37ac e207 0aaa 9679 88ab d197 092c
00000370: 77f4 92ab e695 7c2b 5213 fa2b 08c1 2fac
00000380: 4387 e72b e2ae 0e2b 1014 47ab 70dd e8aa
00000390: 9bcc 6e2a 1294 24ab 0b6e 262b c884 582b
000003a0: 512e 88ab fbe6 16ab 96fd b8ab 0301 a02a
000003b0: a935 d3ab 1ce5 142c 1e14 a8ab 9bd4 db2b
000003c0: 8d0e 2d2c 3ad5 02ab 59cf 942b 1c47 a1ab
000003d0: 5e6a ba29 415c af2b 4e3b b92b 9c81 34ab
000003e0: 826b 8aab 5808 0bab 0379 502b 05ef 912b
000003f0: 2a8b 042c 06f1 b32b ffdc 0f2c 60ca d52b
1.0714882e-12 4.412653e-13 5.118374e-13 1.0545425e-12 1.0891704e-12 1.168161e-12 -7.640143e-13 1.0321463e-12
1.1926571e-12 -6.581461e-13 2.9618742e-13 8.4821625e-13 7.3587507e-13 3.014763e-13 -1.4530837e-12 -5.954208e-14
-4.4122708e-13 5.0479797e-13 3.7408775e-13 -1.4621521e-13 4.743973e-13 8.623575e-15 -7.4949e-13 -4.9922577e-14
-4.989696e-13 -4.845944e-14 9.169125e-15 -6.943015e-13 -4.485571e-13 1.462566e-12 1.0563524e-12 -1.0273892e-12
4.6331515e-13 -1.4983184e-12 -5.756921e-13 -4.742118e-13 2.3350013e-12 -2.0225063e-12 -1.6523618e-12 2.0712234e-12
1.258708e-12 -2.9283626e-12 2.4270878e-12 -2.783792e-12 -8.8221054e-13 -8.9147976e-13 1.1728589e-13 2.647173e-14
9.503591e-14 -4.0725593e-13 -3.8378277e-13 4.1442907e-13 2.9735426e-13 5.0926375e-13 1.8228858e-12 -1.273696e-12
-7.747399e-13 1.8501886e-12 -1.1188205e-12 -2.03358e-12 9.372899e-13 -1.5877724e-12 1.7895143e-12 -5.215821e-13
6.7547096e-14 -3.5868102e-13 -4.1290176e-14 -7.6886644e-14 -1.4002809e-13 5.697686e-13 1.1800131e-13 -1.393708e-13
6.802348e-14 4.0971244e-13 -1.6674635e-13 -1.2003907e-13 -2.919918e-13 -4.0768617e-14 -2.6467847e-13 -2.1934932e-13
4.5341064e-13 3.8462658e-13 -2.6122344e-13 -4.0293078e-13 2.13928e-14 -2.7751903e-13 -2.0701501e-13 -5.4025567e-13
-1.943627e-13 8.802915e-13 -1.2523793e-12 -1.2378742e-12 -2.9096503e-13 8.3940824e-13 6.8128126e-13 -1.3783609e-12
6.1932577e-13 1.3463082e-12 1.7866807e-12 -1.4610605e-13 2.1547949e-13 4.926032e-14 -3.062973e-13 3.4234264e-13
-4.363182e-14 8.626068e-14 -3.4947186e-13 -3.269154e-13 2.636869e-13 -1.5934063e-13 -5.102425e-13 -5.4700455e-13
-7.1460565e-14 3.470633e-13 -2.1901467e-14 -1.4851597e-13 -2.0875787e-13 -3.3315514e-12 9.435658e-13 2.9975059e-12
2.5224157e-12 -3.649741e-12 -5.528604e-13 -1.7545701e-12 -1.6729758e-12 2.703742e-13 3.214888e-13 1.8152827e-13
-2.2737289e-13 -2.1619646e-13 1.250399e-13 6.2923527e-13 1.6329028e-13 -4.6107866e-15 -6.896964e-14 -1.0069082e-13
3.5868393e-14 3.507117e-13 -2.3294853e-13 2.351931e-13 -3.5905916e-14 3.9076172e-13 -3.975581e-14 -3.4422609e-13
3.826998e-13 4.1477775e-13 7.9372517e-14 4.9121265e-13 -2.0650448e-13 -4.201778e-13 4.1555805e-13 -2.815313e-13
7.0592924e-13 6.3423745e-13 -3.749834e-13 7.3977895e-13 1.4153957e-12 -4.0663978e-13 7.909283e-13 -1.3061642e-12
-1.3873984e-12 -1.1365299e-12 -2.2659236e-12 1.959163e-12 1.3487149e-12 2.6413905e-13 -1.7247553e-12 -6.257409e-13
2.827717e-13 2.5518591e-12 1.0748886e-13 -3.3774074e-13 -2.3628988e-13 -7.7965907e-14 -1.5387718e-13 -2.3306633e-13
-3.432577e-13 2.8864717e-13 -7.304915e-14 -9.8174825e-14 -1.1085584e-12 -7.1591176e-13 -3.6660513e-13 -3.0489494e-13
3.0593475e-14 -9.703478e-13 1.4651627e-12 2.9235138e-13 1.6830022e-12 7.296676e-13 -5.2547257e-13 -1.0201361e-13
6.1957893e-13 -3.6426667e-13 -2.4118899e-13 4.6525387e-13 1.2259476e-13 -2.607618e-13 -3.1705988e-12 1.0617926e-12
1.9218633e-12 3.0269513e-12 -1.4882631e-12 -2.4219416e-12 -3.901743e-12 -1.8970424e-12 1.4635394e-12 -6.8862207e-13
1.1226147e-12 -5.1491174e-13 1.2012562e-12 -1.2237543e-12 -5.5395483e-13 -1.7612095e-13 4.2910302e-13 -5.283564e-13
-2.6109713e-12 -1.2259597e-13 -9.697128e-13 1.9553146e-12 -1.0441777e-12 8.973641e-13 1.7768931e-12 -2.497615e-12
1.645108e-12 5.0691233e-13 -7.0726845e-13 -4.1365132e-13 2.1209633e-13 -5.8469993e-13 5.912776e-13 7.6922886e-13
-9.676237e-13 -5.3611255e-13 -1.3144371e-12 2.8422411e-13 -1.5007345e-12 2.1159246e-12 -1.1942702e-12 1.5619896e-12
2.4592856e-12 -4.648119e-13 1.0573583e-12 -1.1459475e-12 8.278511e-14 1.2460103e-12 1.3161501e-12 -6.4128715e-13
-9.835329e-13 -4.93943e-13 7.406438e-13 1.0369211e-12 1.883558e-12 1.2785612e-12 2.04442e-12 1.5190731e-12

conv3.bias f4 [128]
00000000: 5665 35bb f4db 3e2e 30db b031 64a1 3cae
00000010: f231 efbd 6dee 45b8 d2b0 73b8 9874 bcbd
00000020: de8f 71ae ecb4 89bc 2afb 54ad e1e2 7bb7
00000030: b6e4 19be f617 2abb 8d82 b72f 17f1 13ab
00000040: 6184 9fac a52c 33bc 4c0c 87b9 0b60 33b7
00000050: 2a61 74bc f68a 00be 06ba 5bbd 590c 6abd
00000060: bbbb babc c5fe c8bb 19de b137 7226 ffad
00000070: 8830 c5bd 8a10 72b4 7c91 8aab 855b afbc
00000080: 5b2f 14b3 fdbd e0b7 9c05 1a2d f55b acbd
00000090: f459 63bd 89a6 80b6 5e0c 96bd 6f51 68bd
000000a0: d1dc 06ac d04d 47ad acf8 52ad 0fe2 1bad
000000b0: 7c6b b2bd e3c5 2532 2841 c6bc 9e1f ffb9
000000c0: 4f7f c62a 0739 babc e424 4ebc 0a52 b62d
000000d0: 11a9 25ae 13ba b6bd 392f 20bc 894c 85bd
000000e0: 6a5f 7aba fc59 12af 928d 2dba c4eb 76bd
000000f0: 5f0d a9ad 8e29 6a2c e32c 013d 462f c1b6
00000100: 000a 05ab dd7d 46b7 b228 1bad fe47 63b4
00000110: 07ef a72b 728d 9dbd 4fb9 c131 f2b6 7c3c
00000120: e762 c5bd 7404 f9bc c2a6 bcbd e833 0abc
00000130: 12c7 392d 37f3 8cbd 181d 4cbd e582 d4ad
00000140: b3ab 83bc e93a 4e2f bd35 a1bd 00cf 32bd
00000150: e700 94bd 0fc1 7ebc 18f2 e9b3 d982 7bbd
00000160: 2d37 162b 8ed0 8fac 4057 c12c 8388 5dbd
00000170: 413e 93ab 4270 7932 eb78 69b5 5645 aeae
00000180: bc43 ecb9 a533 a8bd af21 dfb9 9e9c c1bb
00000190: caae c6ac c546 5ab0 d4c7 e2bd 30f8 c0bd
000001a0: 9e7e 0dbe 5861 02be 4edf a3bd e96a 773d
000001b0: fe9f 35ba a4a1 3abb 20f5 a4bd ca2c 5e32
000001c0: 918e 43ac 88e0 c731 3eee 18bd 4728 23bd
000001d0: 272d e3b0 4556 73bc 8ddc 1abd 99b2 62b0
000001e0: 3481 f3b7 9219 63bd e873 e0b4 69fa 9dbd
000001f0: 80ba c1ac d378 e53d 29a6 e53d fb4c 86ac
-0.002767881 4.3396356e-11 5.147193e-09 -4.2889595e-11 -0.11679448 -4.719051e-05 -5.810039e-05 -0.09201926
-5.4924836e-11 -0.016809903 -1.2106574e-11 -1.501359e-05 -0.15028653 -0.0025954223 3.3380268e-10 -5.255947e-13
-4.533749e-12 -0.010935937 -0.00025758368 -1.0691593e-05 -0.014915744 -0.1255301 -0.053644203 -0.057140682
-0.022794595 -0.0061338865 2.1203467e-05 -2.9007217e-11 -0.09628397 -2.2544023e-07 -9.84587e-13 -0.021405945
-3.4502005e-08 -2.6791351e-05 8.755132e-12 -0.08415977 -0.055505708 -3.8340845e-06 -0.073265776 -0.056718286
-1.9165123e-12 -1.1329118e-11 -1.1992334e-11 -8.860925e-12 -0.08711907 9.649258e-09 -0.02420099 -0.00048660947
3.5260204e-13 -0.02273227 -0.012582038 2.0727437e-11 -3.7666818e-11 -0.089222096 -0.009776884 -0.065087385
-0.0009550961 -1.3310592e-10 -0.0006620522 -0.060283437 -1.9219014e-11 3.3276468e-12 0.031536948 -5.7573516e-06
-4.726497e-13 -1.18310245e-05 -8.819766e-12 -2.1167213e-07 1.1932407e-12 -0.07692994 5.6381064e-09 0.015424477
-0.09638005 -0.030397631 -0.09211494 -0.008435227 1.0560235e-11 -0.06882327 -0.049832433 -2.4159738e-11
-0.016073084 1.875652e-10 -0.07871578 -0.04365444 -0.072267346 -0.015548958 -1.08939446e-07 -0.061404083
5.3367277e-13 -4.0874587e-12 5.4950766e-12 -0.054085266 -1.0462257e-12 1.4519232e-08 -8.697522e-07 -7.9249204e-11
-0.00045063894 -0.082129754 -0.0004255897 -0.005908563 -5.646904e-12 -7.940851e-10 -0.110732704 -0.09422338
-0.13817832 -0.12732446 -0.08001576 0.06040469 -0.0006928443 -0.0028477693 -0.080545664 1.2932285e-08
-2.7790307e-12 5.8171885e-09 -0.03733658 -0.039833333 -1.6529257e-09 -0.014852111 -0.03780799 -8.2472124e-10
-2.9028022e-05 -0.055444308 -4.1807584e-07 -0.077137776 -5.5060956e-12 0.11204686 0.11213333 -3.8170556e-12

act_conv1.weight f4 [4, 128, 1, 1]
00000000: a9fc a5aa d7d0 06ad 4654 4caa 0095 732b
00000010: 9c3e 932a 3cee cbaa 987b 592c c08b cc2a
00000020: 468d c7ab 0290 e2bd ce21 06aa 99e7 b72a
00000030: 89ec 21be 2572 22ab 6675 e1a9 0ab1 642b
00000040: b827 3dab f120 b3ab 1247 112a c063 cb2a
00000050: 91ad 8aab cb3e 2dab ec6b 4e31 d99d 182a
00000060: 405d 6ba7 5c3c 252b aa10 fe2a 4d82 112b
00000070: dfab aa2a b8bb a12a 7e02 912a 6b62 312a
00000080: 0f40 e22a 0cea 00a9 beb5 972a 9b72 9e2a
00000090: a2ea bcaa b71a c6aa 9378 afaa 969a 832b
000000a0: 42c1 98aa de25 eaaa dbe0 02ab 7402 3aaa
000000b0: ca55 68ab 4742 89aa b483 46aa 79d0 8d2b
000000c0: 9889 de2a 352a 362b 652d 532b 6ccf 18b4
000000d0: 90fd fb28 a674 b22a 6076 78ab aa58 1f2b
000000e0: 2879 1bae 7685 112a 166f 482b 07f0 862a
000000f0: 5d21 ed2a 58e1 912a 7453 40be 2a9d 85aa
00000100: 8617 272a 6ad9 80ab cafd 9daa 6269 2baa
00000110: 0606 08ab f65b 18ab a09d 8eaa 566a 213b
00000120: 7468 f92a 6c05 44aa ac9d 0daa 3c7e 1c2b
00000130: e0ce 87a9 59c1 002a 11ad c2ab c018 0aab
00000140: d2b3 9529 5e28 18aa c85e 09aa 78bf 942b
00000150: a6d6 d5aa 4ebd 212b bf38 b12a 90bb 83ab
00000160: d0c4 ba28 f5fc abab 4a30 182a 5879 a4af
00000170: 0bb4 ec2a d82a 59aa 44e5 9529 d460 a1aa
00000180: 213b a62a d7a1 a42b ed27 ddaa 4ab9 8ca9
00000190: 36e9 d1aa 99ea a2aa b69d acab 3904 7dab
000001a0: 2828 36bd b6d6 0dbe 20d3 ec29 149d a42f
000001b0: 5284 15ab c03f c0a8 469f 05aa 2707 e22a
000001c0: b484 1c2b 8631 abab 1422 492a 10ee 55ab
000001d0: 38cb 93ab 7f58 26ab 9237 b229 e0c5 ba29
000001e0: a83b d8a9 babc 2cab e882 032a a0b4 99a9
000001f0: d6a7 24aa b920 3fbe e045 51be e701 59aa
00000200: 38c1 a52c 0949 612b 944a ee2a b5b9 3a2b
00000210: 6618 a5bd 55b3 d32a b16d acb0 76d8 9dbd
00000220: f4df f2aa 006b fca7 407f 2f2b 8129 c82b
00000230: 64f9 67aa 20fd 9c2b e771 8929 d0ea ada8
00000240: 5a46 4aaa 79e8 b3bb b6d8 9db8 a0ca d3a7
00000250: e608 bfbb 461d 92bd c0cc 31ab 0052 c4bd
00000260: 58b3 9b2b 6ac3 3429 c893 89aa 738e 282e
00000270: 14d4 b6bd ac84 96ab de4c f5aa 2c90 64bc
00000280: 2a55 1aaa 3edd 0f2a 449c 3eba f48c c3bd
00000290: a4be c8bd cdfb e12a 2871 99bd 47d0 b7bd
000002a0: fc41 cba9 d0cc d129 7bca 2cab d0e4 982b
000002b0: 9b25 afbd eb48 00ab e043 df2b d4c1 d330
000002c0: feb0 93aa cc65 c432 98a6 8b2b a700 e82b
000002d0: 8052 3ea7 0f92 adbd d026 872a 3b0a cebd
000002e0: b027 81ab 409a 60aa 959a a2b2 0262 c9bd
000002f0: f794 2eab fef4 792a 4000 79ba 4855 a5aa
00000300: d57a 9b2a ee3d 362b 5e89 6aaa 8635 2caa
00000310: 2412 79ab db74 c0bd 2c19 25b7 f6a7 46b8
00000320: c918 b5bd 0046 892b d2c1 a8bd ab78 2fba
00000330: 8fe8 8dab 7714 6fbd 5714 06bd afab a12b
00000340: 7902 77bb 5f55 21aa 81f7 afbd 13d9 99bd
00000350: ada3 d2bd bccd 43bb 9c88 ab2b db37 b5bd
00000360: 26fd a8aa c831 2829 8190 c8ab 10b1 e0bd
00000370: 165f f2aa 50d7 95aa d299 042a 7844 472a
00000380: 0c0a c82b e9bb c431 ce5e a32c 5b00 462c
00000390: 4659 99ab 820d a82b f0cd 96bd dca3 f1bc
000003a0: fb1e 0eab 4170 85ab 6086 c6aa c691 842b
000003b0: c683 022a b071 a4ac 8bfe bdbd de10 13ad
000003c0: 3481 8e2b 9e15 b32a 87dc 51b7 7ea1 86bd
000003d0: d4f9 b92b 0427 c0b8 1e52 06bd 1ed6 c42b
000003e0: ff2c 39ab 361d aabd ffdf 20ac f02f 82bd
000003f0: 6862 7ca9 b8b1 afbb 0108 0e2d cf00 1e2a
-2.9485206e-13 -7.66339e-12 -1.8148078e-13 8.653772e-13 2.615589e-13 -3.6225352e-13 3.0906163e-12 3.633465e-13
-1.4179012e-12 -0.110626236 -1.1913319e-13 3.2668033e-13 -0.15812887 -5.771237e-13 -1.00123726e-13 8.1247563e-13
-6.720141e-13 -1.2727858e-12 1.2903245e-13 3.612926e-13 -9.853664e-13 -6.154909e-13 3.0038292e-09 1.3555076e-13
-3.2663352e-15 5.870354e-13 4.5131027e-13 5.1695177e-13 3.0317326e-13 2.87296e-13 2.5758903e-13 1.5754904e-13
4.0190114e-13 -2.8624713e-14 2.6949097e-13 2.8145962e-13 -3.3558318e-13 -3.5190403e-13 -3.116991e-13 9.351016e-13
-2.7134724e-13 -4.1593026e-13 -4.649733e-13 -1.652097e-13 -8.2542014e-13 -2.4382078e-13 -1.7631626e-13 1.0076515e-12
3.9530597e-13 6.4717963e-13 7.5025256e-13 -1.4231563e-07 2.7976563e-14 3.1700093e-13 -8.827158e-13 5.6611194e-13
-3.5350528e-11 1.292489e-13 7.1208436e-13 2.3969734e-13 4.2122808e-13 2.5913538e-13 -0.18781835 -2.37346e-13
1.4840741e-13 -9.155292e-13 -2.8064904e-13 -1.5224413e-13 -4.8325265e-13 -5.412887e-13 -2.5333641e-13 0.0024630032
4.4303764e-13 -1.7410178e-13 -1.2578019e-13 5.559752e-13 -6.0310914e-14 1.1435765e-13 -1.3832565e-12 -4.9061796e-13
6.648123e-14 -1.3514317e-13 -1.2200928e-13 1.0569176e-12 -3.7985343e-13 5.7461403e-13 3.1480892e-13 -9.360169e-13
2.0735502e-14 -1.222049e-12 1.3517066e-13 -2.9917646e-10 4.204695e-13 -1.9288336e-13 6.6567005e-14 -2.8666533e-13
2.9528552e-13 1.169782e-12 -3.928519e-13 -6.2493915e-14 -3.728768e-13 -2.8939766e-13 -1.2265109e-12 -8.9889516e-13
-0.04447189 -0.13851437 1.051713e-13 2.9943037e-10 -5.3119065e-13 -2.134393e-14 -1.1868032e-13 4.0150628e-13
5.5606496e-13 -1.2164026e-12 1.786421e-13 -7.600318e-13 -1.0501383e-12 -5.909786e-13 7.914428e-14 8.294385e-14
-9.6026756e-14 -6.1368586e-13 1.1680555e-13 -6.8258984e-14 -1.4624356e-13 -0.18664826 -0.20436811 -1.9274132e-13
4.7110336e-12 8.0037414e-13 4.2329042e-13 6.6338195e-13 -0.08061294 3.7605566e-13 -1.2545823e-09 -0.07707302
-4.3143234e-13 -7.006006e-15 6.2349084e-13 1.4222374e-12 -2.0603446e-13 1.1154723e-12 6.103781e-14 -1.9308692e-14
-1.7965612e-13 -0.0054903594 -7.526709e-05 -5.878395e-15 -0.005829918 -0.0713449 -6.316718e-13 -0.09585953
1.106319e-12 4.0137524e-14 -2.4438633e-13 3.8325298e-11 -0.089271694 -1.0694965e-12 -4.357408e-13 -0.013950389
-1.3707495e-13 1.277771e-13 -0.000727121 -0.09548369 -0.09801987 4.014275e-13 -0.07492286 -0.089752726
-9.0264574e-14 9.316994e-14 -6.1387673e-13 1.0863758e-12 -0.085520945 -4.557593e-13 1.5863942e-12 1.540736e-09
-2.6235259e-13 2.2863695e-08 9.922783e-13 1.6484773e-12 -2.641252e-15 -0.08475124 2.400775e-13 -0.10060545
-9.177017e-13 -1.9948713e-13 -1.8929578e-08 -0.09833147 -6.202395e-13 2.2200641e-13 -0.00094986334 -2.9369064e-13
2.7618763e-13 6.4745334e-13 -2.0831034e-13 -1.5295238e-13 -8.8487746e-13 -0.093972884 -9.840627e-06 -4.7363304e-05
-0.08842618 9.753864e-13 -0.08240093 -0.0006693701 -1.0083201e-12 -0.058369126 -0.03273424 1.148739e-12
-0.0037690683 -1.4329292e-13 -0.085921295 -0.07512107 -0.10285125 -0.0029877266 1.2188197e-12 -0.08848544
-3.0018452e-13 3.7346672e-14 -1.4250963e-12 -0.10971272 -4.3053815e-13 -2.661712e-13 1.1777322e-13 1.7698505e-13
1.4213643e-12 5.7257137e-09 4.643264e-12 2.813769e-12 -1.0896082e-12 1.1940867e-12 -0.07363498 -0.02949708
-5.049153e-13 -9.481375e-13 -3.5265107e-13 9.419624e-13 1.1592038e-13 -4.673782e-12 -0.09277066 -8.359728e-12
1.0125568e-12 3.1811787e-13 -1.2508716e-05 -0.06573771 1.3214382e-12 -9.162541e-05 -0.032793157 1.3986067e-12
-6.578765e-13 -0.08306353 -2.286171e-12 -0.063567996 -5.6040594e-14 -0.005361762 8.073543e-12 1.40335e-13

act_conv1.bias f4 [4]
00000000: 8c12 4bbe eee9 00be f95a eebd 128b 86bc
-0.19831294 -0.12589237 -0.116384454 -0.016423736

act_fc1.weight f4 [100, 400]
00000000: 7c9a 462a 6654 582d 40af 952d 4c4b d3ac
00000010: f0ad c4ad 9cc5 e1ad cd46 c3ad 4bca ae2d
00000020: a25b 31ac e09a dc2c 8592 6c2d ccf1 ac2d
00000030: 294a bdad 651c e12d 8e33 462d 9bb0 e42c
00000040: 7743 c22d 6214 582e 9266 40ad 58a9 e0ad
00000050: 66a8 ca2d 4274 46ae 0308 6a2e be21 eaad
00000060: c3d7 17ae b524 23ae 1747 aead 600b 512e
00000070: 3738 58ae 4ee8 97ad 824b 802d 26e1 582e
00000080: 55bd c8ad 9045 0bae bfc9 dcad 0c0c 20ae
00000090: 6956 71ae 0351 48ae 12c2 29ad fae1 05ad
000000a0: ac28 382d bf38 5e2e e8f6 3cae 0481 28ad
000000b0: bea9 14ad db87 01ae ea98 55ae f4b3 54ae
000000c0: 8db7 dbac 2b5a b3ac a823 182b 4f18 572e
000000d0: fcae 55ae 28f4 9aab 0f46 cbac 66c6 0eae
000000e0: e858 6cae 1887 50ae fcfb b3ac f0c3 00ac
000000f0: 022f cdac f863 4f2e 025a 60ae f2db 3fad
00000100: 7647 b0ad 959f 40ae 260d 81ae 9234 32ae
00000110: 8074 eb29 2232 632c 4248 7aad 2141 5c2e
00000120: eaf2 bead a0fb 70ae b0ec 87ae f069 85ae
00000130: b711 58ae e037 482b fc88 1eae c828 00ae
00000140: 4e53 d22d 0bb1 05ae 5e9f d5ad 0875 532e
00000150: d841 ec2d f099 a2ab 57a6 85ad e7e0 5eae
00000160: c0d6 212e fe44 67ad 07b3 452d b624 e7ad
00000170: 9c30 0eae 786f 452d 58bf ccad 6cc0 0dae
00000180: 05c8 06ae 3cc0 812b d7c5 e42d 3f6b 802d
00000190: 3675 39ac feca 902c 0cbe 892c 2b89 21ac
000001a0: d258 53ac e170 93ac 3ddf 932c 2740 9dac
000001b0: 979b 92ac 56b9 122b 709c 3eac 4681 abac
000001c0: 40ed 91ac 5c2f e02c 6a00 e62c aab6 bfab
000001d0: 7850 a52c 7374 f4ac ddec e32c 646b 352c
000001e0: 40cd 092b 3a1b 5b2b ae69 ca2c c6f2 832c
000001f0: cf53 c82c 42ba 992c bc15 e42c e83c b4ac
00000200: 2240 e4ac 1ae1 3bac d732 692c 9a06 082c
00000210: 2408 49ac a438 672b 01e7 abac 6930 9fac
00000220: 2235 edac 0921 dbab 229d e4ac 4870 c9ac
00000230: 51b5 6bac fd4d a3ac 487b 212b 06a1 18ac
00000240: 7f0f 89ac 7279 ffac 7265 732c b8a5 15ab
00000250: 5011 a72a bd50 69ac f833 8b2c de69 0eac
00000260: 500b de29 e183 802c 5395 f4ac 80d8 84ac
00000270: a296 9eac fd28 802c 0ed4 822c 4069 bd2a
00000280: 22b3 61ac f124 b0ab 12ec 11ab ba1c b82c
00000290: 2e56 a7ac 64e0 af2c c75f 882c 8f98 76ac
000002a0: 60c9 b9aa 7405 3bac 17ff 5cac c026 cc29
000002b0: 9a71 43ac c070 c7ac 4230 42ac 8374 c6ac
000002c0: 250f 98ac a84b 8dac f344 ae2c 28a8 172c
000002d0: a2d1 182c c885 14ac 45a9 a22c ee30 a4ac
000002e0: 6b0e 1aac 3665 64ac 60a8 e52a 0199 522c
000002f0: 4c62 b8ac 5b7c 8d2c c114 4d2b af08 15ac
00000300: f751 c52b 1eef 04ab e2f3 bd2b eaa4 b7ab
00000310: b369 c92b 808d a62b 2bb6 872c e933 02ac
00000320: 50f1 cfaa a21a a8ac 3cf0 baac 819b f4ab
00000330: 1662 eb2c 0265 bb2c 140d 11ad 4d43 08ad
00000340: 12ab bd2c 22be 582b b3d6 b2ac 8e2a 092d
00000350: e19e 12ad a3a6 552d 5017 392d fd2e b92c
00000360: c016 2bac 3c7c 13ad 0c16 772d a9aa 86ac
00000370: 386d 0dab a061 17ad 97c3 3a2d 4f59 8bac
00000380: d513 cb2b 7481 2ead 3a5c e0ac 6f01 762d
00000390: f0f9 0fac e454 1aad 21e6 d12c 1a73 2c2d
000003a0: 8035 3fac 9878 282d ae65 092d 158d 082d
000003b0: e286 8e2c 0a17 392d b00b 35ad 8ac2 332d
000003c0: 4f2f bfac 66aa 4dad fcc6 25ad 94a0 91ac
000003d0: 2fcf 802c 28cc 852d dbbb 2bad d7a4 0dad
000003e0: c6b0 bcac 04fd 2d2c 3e90 fe2c 11fa 9e2c
000003f0: 997c 562d 7cfa 88ac 7dd3 632d 5e03 912b
1.763953e-13 1.2296919e-11 1.7017165e-11 -6.0053403e-12 -2.2359864e-11 -2.5667295e-11 -2.2200375e-11 1.9871346e-11
-2.520408e-12 6.2699707e-12 1.3447581e-11 1.9661515e-11 -2.1519746e-11 2.5592148e-11 1.1266444e-11 6.499757e-12
2.2085207e-11 4.9130817e-11 -1.0936712e-11 -2.5541055e-11 2.3039525e-11 -4.5123245e-11 5.3212556e-11 -2.6617705e-11
-3.452506e-11 -3.709451e-11 -1.981308e-11 4.75312e-11 -4.9162643e-11 -1.7269877e-11 1.4585447e-11 4.9312686e-11
-2.2821448e-11 -3.1666725e-11 -2.5100698e-11 -3.6390488e-11 -5.4873803e-11 -4.5546688e-11 -9.64963e-12 -7.610352e-12
1.046822e-11 5.0527357e-11 -4.2965548e-11 -9.578342e-12 -8.450516e-12 -2.9451868e-11 -4.8566408e-11 -4.836305e-11
-6.2447326e-12 -5.0974966e-12 5.405073e-13 4.890693e-11 -4.858601e-11 -1.1010125e-12 -5.777385e-12 -3.2463275e-11
-5.3739152e-11 -4.7413712e-11 -5.115462e-12 -1.8298661e-12 -5.8316693e-12 4.715514e-11 -5.1011646e-11 -1.0905931e-11
-2.0040618e-11 -4.3797483e-11 -5.8685765e-11 -4.0519206e-11 1.0456306e-13 3.228647e-12 -1.4226899e-11 5.0080055e-11
-2.1708375e-11 -5.479317e-11 -6.1811334e-11 -6.066958e-11 -4.9128448e-11 7.1131816e-13 -3.6046707e-11 -2.914005e-11
2.391123e-11 -3.0397945e-11 -2.428607e-11 4.807979e-11 2.6859334e-11 -1.1553519e-12 -1.519422e-11 -5.067671e-11
3.6797898e-11 -1.3146149e-11 1.1237906e-11 -2.6277962e-11 -3.2330236e-11 1.12229046e-11 -2.3277089e-11 -3.2230593e-11
-3.0645726e-11 9.219357e-13 2.6008458e-11 1.4599542e-11 -2.6355146e-12 4.115263e-12 3.9148736e-12 -2.295562e-12
-3.0034209e-12 -4.1905234e-12 4.2027757e-12 -4.4693307e-12 -4.1668435e-12 5.2126825e-13 -2.7087464e-12 -4.8744645e-12
-4.147488e-12 6.371721e-12 6.537039e-12 -1.3622066e-12 4.698516e-12 -6.9478256e-12 6.478025e-12 2.578126e-12
4.895702e-13 7.7842214e-13 5.752918e-12 3.750197e-12 5.6936465e-12 4.3692003e-12 6.4825628e-12 -5.1226696e-12
-6.48727e-12 -2.6699255e-12 3.3139513e-12 1.9330427e-12 -2.8568337e-12 8.214629e-13 -4.885759e-12 -4.5244264e-12
-6.741844e-12 -1.5570055e-12 -6.497595e-12 -5.7252293e-12 -3.349616e-12 -4.641397e-12 5.736978e-13 -2.1689885e-12
-3.8954946e-12 -7.261019e-12 3.458869e-12 -5.3165415e-13 2.9677172e-13 -3.315611e-12 3.9563873e-12 -2.0238182e-12
9.860743e-14 3.6526203e-12 -6.9514754e-12 -3.775702e-12 -4.5073537e-12 3.6425294e-12 3.718365e-12 3.3646176e-13
-3.2073862e-12 -1.2515805e-12 -5.184196e-13 5.232784e-12 -4.7559933e-12 4.9987115e-12 3.875986e-12 -3.504339e-12
-3.3002334e-13 -2.6577325e-12 -3.1405484e-12 9.066142e-14 -2.7774228e-12 -5.668438e-12 -2.7595847e-12 -5.640434e-12
-4.321781e-12 -4.0158606e-12 4.9530323e-12 2.1551736e-12 2.1716869e-12 -2.1106328e-12 4.6231096e-12 -4.6665926e-12
-2.189272e-12 -3.2456932e-12 4.0795405e-13 2.992773e-12 -5.2405077e-12 4.0212673e-12 7.285943e-13 -2.1178994e-12
1.4020442e-12 -4.722766e-13 1.3496949e-12 -1.3048705e-12 1.4311246e-12 1.1834284e-12 3.8571555e-12 -1.8502927e-12
-3.693803e-13 -4.777804e-12 -5.3131093e-12 -1.7380404e-12 6.6899914e-12 5.326074e-12 -8.2452e-12 -7.745649e-12
5.3906957e-12 7.700248e-13 -5.0829007e-12 7.796997e-12 -8.334417e-12 1.2144649e-11 1.0521209e-11 5.263233e-12
-2.431319e-12 -8.383568e-12 1.404522e-11 -3.827456e-12 -5.0244834e-13 -8.605033e-12 1.0616306e-11 -3.960533e-12
1.4429522e-12 -9.919499e-12 -6.376702e-12 1.3983799e-11 -2.0460265e-12 -8.772736e-12 5.9656867e-12 9.802626e-12
-2.717243e-12 9.5764716e-12 7.810126e-12 7.7620315e-12 4.0508577e-12 1.0521148e-11 -1.0291254e-11 1.0218168e-11
-5.433799e-12 -1.1690737e-11 -9.4233475e-12 -4.1389756e-12 3.660981e-12 1.5211013e-11 -9.761937e-12 -8.051524e-12
-5.362907e-12 2.472523e-12 7.2351283e-12 4.518393e-12 1.2192158e-11 -3.893162e-12 1.2950416e-11 1.0303804e-12

act_fc1.bias f4 [100]
00000000: b31c b03d 6886 04be 43cf bfbe 714e 3e3d
00000010: 4b29 debd 0951 cabd 777a 123c 599a c4be
00000020: fb01 46be 79af 973d afec 06be fc28 b2be
00000030: 4a47 743c 54c0 c93e 27c4 8c3d 0013 8cbc
00000040: 2eb5 4c3e 5a2c 753d 6c2c b3be 7225 42be
00000050: 459f abbe ac69 953c ec66 06be d360 913e
00000060: 36f0 463d d30f 033e a470 9e3e bbe6 42be
00000070: fd4f 8fbc 905b c8be d1f9 eb3d e873 163e
00000080: 7ef9 423e 780f 52bc 1b3a 963d 5e5e 453b
00000090: 4655 4a3d 876a 523e f222 8d3d 0d86 0f3d
000000a0: 4667 6dbd 704d e238 cc0d 813e 2c9f 2a3e
000000b0: ee6b cebc 1d34 733d 9a9e 65bb 01c1 e23d
000000c0: 69a5 5fbd 80f0 e4bd 2874 c63c be23 f6bd
000000d0: e9af 1abc cc5a 493e 8e80 233c 7557 503c
000000e0: f517 683c c293 a73d d8e4 803d 6373 f7bd
000000f0: 6205 5d3c 2f49 443d 273e a03e 891a 313e
00000100: 7477 ee3d a106 663d 16e0 c63d 7f1c 4d3e
00000110: bcd0 153e 6a54 623c fcc4 b4be e2e6 723d
00000120: 35a5 23be cba3 8d3e 5d86 d43c 4dcd 1b3e
00000130: 215c 853e 2c6e 56be 9a91 303c a9d6 cbbe
00000140: a938 28be ca6b c1be fe05 153d 6c3a 7f3e
00000150: 00ee 5238 5efd 9ebd 65ff 9b3c 6258 633d
00000160: 6343 babe 490d 2bbe 88ee 893d b44c 0bbe
00000170: 0350 e7be ab5e c93d 3ecd 9c3c baec 4a3c
00000180: 9b01 143d 85f5 c0be 7616 2bbe 50f0 7e3d
0.08599224 -0.12941897 -0.37462816 0.046461526 -0.1084772 -0.098787375 0.008940331 -0.38399008
-0.19336693 0.07406516 -0.13176225 -0.34796894 0.014909575 0.39404547 0.068733506 -0.017098904
0.1999099 0.05985675 -0.3499483 -0.18959597 -0.3351995 0.018238865 -0.13125199 0.28394184
0.048568927 0.12799005 0.30945313 -0.19033329 -0.017494196 -0.39132357 0.11522258 0.14692652
0.19040486 -0.012821071 0.073353015 0.0030116062 0.04939773 0.2054845 0.06891431 0.03503995
-0.057959817 0.000107909436 0.2520584 0.16662282 -0.02519795 0.05937587 -0.003503716 0.11071969
-0.054601107 -0.11178684 0.02422531 -0.12018536 -0.009441354 0.19663543 0.00997938 0.012716164
0.014165868 0.081824794 0.062936485 -0.12082555 0.013490053 0.047921356 0.31297418 0.17295279
0.116438776 0.056158666 0.0971071 0.20030402 0.14630407 0.013814071 -0.35306537 0.05930222
-0.1598099 0.27664027 0.025942976 0.15215035 0.2604685 -0.20940465 0.010776902 -0.3981221
-0.16427864 -0.3777755 0.036382668 0.2492463 5.0289556e-05 -0.0776317 0.01904268 0.05550421
-0.36379537 -0.16704287 0.06734949 -0.13603479 -0.45178232 0.098325096 0.019140836 0.012385542
0.036134344 -0.37687317 -0.16707787 0.0622409

val_conv1.weight f4 [2, 128, 1, 1]
00000000: 07bf 0bad 63d2 e82a e47b a0ac 56b7 4d33
00000010: 76c1 aab7 ee9e ce2a cca3 b5ab 3ac0 6832
00000020: b436 4cab da94 50ab d0e9 56b3 1678 302b
00000030: 42ae e929 6e62 8e2a 807a b6b1 65a7 a32b
00000040: 7085 c229 2e83 f52e a753 172b 6a89 5aaa
00000050: 88e5 39ac 78fc 19b6 c58e 762b 5394 c2b4
00000060: 77eb 3cae 6746 902b 5576 fab2 00d9 88aa
00000070: 55aa d5b5 a8f8 772d 40c4 b8aa 784b 8aab
00000080: 757b cc2a 1922 b8aa 5cbf e6ab d65f d8b6
00000090: cef5 3c31 2ec6 8daa 6d50 562a e4a0 3232
000000a0: 714a 6738 6840 c2a8 ee64 43aa d487 c429
000000b0: 871c 53b0 30fb 232b fd0b a72d c05f 932a
000000c0: c621 092b dba3 19b0 57ad 8f2f 18a0 e5aa
000000d0: 803f 66a7 69cf d1b4 b2aa 922f 08f8 cfb7
000000e0: a526 592b 0076 07ab 180d 7e2a d9d8 92b5
000000f0: 6cfb 1a36 657f a1ad a9c6 b2b8 ce42 8faa
00000100: eeca 5baa 8fc9 c3ab ff56 fbaa 909c 8129
00000110: 121f 36b0 2f32 6131 d681 bcaa f941 fab7
00000120: 89d0 8cb5 29af 59ae 68bc 07b5 5442 23aa
00000130: d69c a3ab 78ae 22ab e7e3 81ab 5eb1 64ac
00000140: 91ad 95ab 7d81 5bab f3ab b8b5 9cbc eb29
00000150: 09c6 78b5 ac95 c22b fed0 9bab 84be 87b3
00000160: 00b1 bf2a 38de 84b3 b562 b2ab 053d a7b5
00000170: 6893 9eb1 d5f0 18ac 2fa3 bc2a 7398 c6b2
00000180: c2c4 bead d7a8 5432 3628 4caa 3c42 012e
00000190: bd9c baa9 7202 e6aa 28a9 b5b4 6a1f 252e
000001a0: 2780 e92a 8520 002a 0c61 9daa 203a 5db8
000001b0: d212 832d c5be df2b 9428 2032 3a71 05ae
000001c0: 7083 0b29 c38d ffac c5d2 22ac 0c26 c5a9
000001d0: fdd7 aeb1 09e8 83ab 568b 462f b9f1 172d
000001e0: ce74 aa2a ca15 afa9 1221 0c2b 2c31 1a2e
000001f0: 242d 3faa 6bc2 033c b805 32ba ec01 9c2b
00000200: 5c62 0a2a d39b 6c2b fe67 9c29 7201 7a2b
00000210: 0e4f 0eac b0c1 672a c869 86a9 fa74 59ab
00000220: 6d36 fa2a 4216 86aa 1cc9 e42b 764f 9b2b
00000230: 2a59 402b f698 bb29 c2ab 93a9 4eeb c5ab
00000240: 96e6 03ab ed87 5eab d775 07ac cb9e 35ac
00000250: 15e6 bdab b8ec 7a2a bee2 faaa 1e2e be2a
00000260: ee02 ce2a 140a da2a 9968 1e2b 592e 882b
00000270: c072 722a 6e68 d8aa 4a30 23ab fafa b9ab
00000280: 366e 0fab 2857 83ab 30a1 7eaa a785 baa9
00000290: 625c fd2a fb61 7e2a 44d0 21aa 2c54 a8ab
000002a0: 1e99 58ad 29fa e62a d468 2c2c 3ed9 d6aa
000002b0: 031a c7aa 4181 602b 3c4c 46ac 0cf8 902a
000002c0: ae05 01ab 3037 0bac 5995 002b 8607 7b2b
000002d0: d89b 262a fde8 db2b 445a 642b a345 37ab
000002e0: 2c90 93ab 9a37 402a ca4f 73ab 5cd0 c62b
000002f0: 4179 a42a 13e7 dc2b 2fdb 3dad 5cb1 9e2b
00000300: de12 05ac 5182 b02a f7b3 8fa9 569d 48ab
00000310: aee9 40ab 325a 6a2b 00fa b326 5008 bf2b
00000320: c464 81ac 3628 e6aa fe40 e22b d832 0a2a
00000330: c04c 91a9 168f 4ba9 ea58 f1aa aa36 af2b
00000340: 93b2 9829 559f aaaa 6335 2bab b38b ec2b
00000350: ee9f 002c eeaf b12c 565e f72b 2e68 7b2d
00000360: 0c87 9bab a452 2c2b d5ff 0e2b 028c 212b
00000370: 9128 0b2b 504a 51aa 5731 ccab fd0c a2aa
00000380: 5aa9 dfaa 4c8d f9a9 adad 8aab 0370 4caa
00000390: 3222 a1aa 6ce4 f12b 85fd e32b 74ff 262a
000003a0: dce0 82aa c678 cb2a 7b76 e5ab 3c07 73ab
000003b0: 6a64 132b 2282 80aa b296 d8ab 3895 1eaa
000003c0: 10ce 7daa fa11 caab c143 092c 67d0 baaa
000003d0: 8280 9baa 282b d4a9 6af7 b9aa 8dff bb2a
000003e0: aaab 372b e8a3 7ea9 f086 fd29 58a5 60ab
000003f0: b10f b92c a558 ecab 3de2 372b b47e c62b
-7.943652e-12 4.1357464e-13 -4.561228e-12 4.7897025e-08 -2.0355666e-05 3.670323e-13 -1.2906286e-12 1.3547885e-08
-7.2551275e-13 -7.410302e-13 -5.003841e-08 6.2694413e-13 1.03775075e-13 2.5292566e-13 -5.310824e-09 1.1628308e-12
8.6384784e-14 1.1164612e-10 5.376207e-13 -1.9409965e-13 -2.6417497e-12 -2.2945733e-06 8.759489e-13 -3.6243236e-07
-4.2955386e-11 1.0251356e-12 -2.9157642e-08 -2.4309027e-13 -1.591931e-06 1.4095537e-11 -3.2821142e-13 -9.826437e-13
3.6323345e-13 -3.2708626e-13 -1.6395596e-12 -6.4484584e-06 2.7497324e-09 -2.5184146e-13 1.9034921e-13 1.0397546e-08
5.514402e-05 -2.1566258e-14 -1.7354496e-13 8.727711e-14 -7.680189e-10 5.8257826e-13 1.8991026e-11 2.6178885e-13
4.871905e-13 -5.589393e-10 2.6134714e-10 -4.078966e-13 -3.1953335e-15 -3.9080194e-07 2.6678532e-10 -2.4791821e-05
7.7147517e-13 -4.812539e-13 2.2564275e-13 -1.0940959e-06 2.3094135e-06 -1.8360155e-11 -8.524705e-05 -2.5448258e-13
-1.9521513e-13 -1.3911527e-12 -4.4646922e-13 5.75591e-14 -6.625537e-10 3.2770335e-09 -3.34856e-13 -2.9833043e-05
-1.0491505e-06 -4.949566e-11 -5.0565586e-07 -1.450032e-13 -1.1625377e-12 -5.7796086e-13 -9.229257e-13 -3.2499207e-12
-1.0635261e-12 -7.798413e-13 -1.3759112e-06 1.0468815e-13 -9.267538e-07 1.3826071e-12 -1.1071419e-12 -6.321082e-08
3.4051234e-13 -6.18715e-08 -1.2675057e-12 -1.2460229e-06 -4.6151634e-09 -2.1734188e-12 3.350874e-13 -2.311956e-08
-2.1687877e-11 1.2378414e-08 -1.8132791e-13 2.9390032e-11 -8.287249e-14 -4.0857904e-13 -3.3836955e-07 3.7544558e-11
4.1478038e-13 1.1379966e-13 -2.7956142e-13 -5.274464e-05 1.4901334e-11 1.5898052e-12 9.322452e-09 -3.0341264e-11
3.0978204e-14 -7.2632746e-12 -2.3138585e-12 -8.7551575e-14 -5.0886215e-09 -9.372513e-13 1.8057497e-10 8.6370295e-12
3.0279116e-13 -7.775341e-14 4.9783886e-13 3.505922e-11 -1.6979869e-13 0.008041958 -0.00067910133 1.1085e-12
1.2290987e-13 8.406029e-13 6.9458314e-14 8.881985e-13 -2.0223298e-12 2.058412e-13 -5.9691455e-14 -7.7256224e-13
4.4446686e-13 -2.3818626e-13 1.6256193e-12 1.1035467e-12 6.833584e-13 8.331003e-14 -6.5579066e-14 -1.4063002e-12
-4.686055e-13 -7.905888e-13 -1.9250068e-12 -2.5809795e-12 -1.3493118e-12 2.2286589e-13 -4.4566255e-13 3.378278e-13
3.6594984e-13 3.8731572e-13 5.6278035e-13 9.676245e-13 2.153373e-13 -3.844177e-13 -5.797625e-13 -1.3214701e-12
-5.0956754e-13 -9.332301e-13 -2.2615655e-13 -8.283244e-14 4.5005931e-13 2.2593726e-13 -1.4371929e-13 -1.196048e-12
-1.2312177e-11 4.102979e-13 2.4500861e-12 -3.8164778e-13 -3.536755e-13 7.976016e-13 -2.817981e-12 2.5751656e-13
-4.583789e-13 -1.9783723e-12 4.5681997e-13 8.9183554e-13 1.4797831e-13 1.5625553e-12 8.112714e-13 -6.51113e-13
-1.0484994e-12 1.7072316e-13 -8.644167e-13 1.4126578e-12 2.921639e-13 1.5696076e-12 -1.0792075e-11 1.1275802e-12
-1.891091e-12 3.1354306e-13 -6.3816946e-14 -7.127262e-13 -6.85364e-13 8.325867e-13 1.2488383e-15 1.3573673e-12
-3.6775877e-12 -4.088411e-13 1.6076305e-12 1.2274502e-13 -6.4526075e-14 -4.5199162e-14 -4.2871896e-13 1.244967e-12
6.781134e-14 -3.0308625e-13 -6.0825493e-13 1.6807583e-12 1.8278673e-12 5.0501747e-12 1.7576589e-12 1.4290831e-11
-1.1050895e-12 6.122136e-13 5.080357e-13 5.739299e-13 4.943902e-13 -1.8588711e-13 -1.4508766e-12 -2.8785993e-13
-3.973027e-13 -1.10823324e-13 -9.853694e-13 -1.8157702e-13 -2.8623073e-13 1.718748e-12 1.6199686e-12 1.483239e-13
-2.3248666e-13 3.6143847e-13 -1.6304314e-12 -8.634098e-13 5.2364244e-13 -2.2827665e-13 -1.5389549e-12 -1.408499e-13
-2.2542406e-13 -1.4357953e-12 1.9506482e-12 -3.3184845e-13 -2.76227e-13 -9.422178e-14 -3.303428e-13 3.3395197e-13
6.525289e-13 -5.6541496e-14 1.1258865e-13 -7.9810247e-13 5.2597583e-12 -1.6793412e-12 6.532863e-13 1.4103913e-12

val_conv1.bias f4 [2]
00000000: 6801 d0b9 385b 9abb
-0.000396739 -0.004710581
